data.pth (torch, 6207 bytes, 6 tensors)

l1.weight f4 [8, 73]
000000 c8 31 8c bd 33 72 6a 3e 9a 46 2c 3f 98 f9 4d bf
       -0.068454325 0.22895126 0.6729523 -0.80458975
000010 05 75 b3 3d 46 8a de be cc e5 c1 bd f7 79 4e 3e
       0.08762554 -0.4346487 -0.094676584 0.20163713
000020 2c e2 a3 be 2b 9c be be 60 d0 ab be 23 25 b4 3d
       -0.32008493 -0.37228522 -0.33557415 0.08796146
000030 01 99 b6 3e 2c 14 36 3e 93 bd 2d 3f 65 99 73 3f
       0.35663608 0.17781132 0.6786739 0.95155936
000040 9a 44 bc 3d 3c 51 74 3e 22 4d e7 3e b9 18 dd be
       0.09192772 0.23859113 0.45176035 -0.43182924
000050 04 9b b5 3e e5 dd 88 3e a9 c6 7f be 1b b3 b3 be
       0.3546983 0.26731792 -0.24978127 -0.35097584
000060 89 46 1c be dc b4 45 3f 69 df 77 be 7c b0 31 bf
       -0.15261282 0.77229095 -0.24206318 -0.6940992
000070 94 7b a4 3d b0 70 74 3f a3 24 7c 3f 33 39 77 3f
       0.08031383 0.9548445 0.98493403 0.96571654
000080 fd 72 05 bf 6b bb 83 3e 07 34 c3 3e b9 83 88 be
       -0.52128583 0.25728926 0.3812563 -0.26662996
000090 4d 59 2f 3f b7 f5 82 be 6b 0b e9 be b7 aa d8 3d
       0.6849564 -0.2557809 -0.45516524 0.10579436
0000a0 6c 09 a6 3e 9d 65 14 3f da 66 b9 bd c3 fd 59 bf
       0.32429063 0.5796755 -0.090528205 -0.85152835
0000b0 0c 41 44 3f 54 58 aa 3e 4d 29 49 be 00 f2 0e bf
       0.76661754 0.33270514 -0.19644661 -0.5583801
0000c0 25 72 4c be c0 2a d6 bc 79 12 38 be 65 51 ca 3d
       -0.19965418 -0.026143432 -0.17975797 0.09878806
0000d0 9e bd 68 3e 71 47 e4 be b0 09 c7 3d 52 f2 6f be
       0.22728583 -0.44585755 0.097186446 -0.23432282
0000e0 a2 7b 0b 3f b7 88 02 3f 31 08 44 bd 20 8b 26 3f
       0.54485524 0.5098986 -0.047859374 0.6505604
0000f0 8f e2 1e 3f 13 77 01 3f 53 59 f8 be d1 bd 27 3f
       0.6206445 0.5057232 -0.4850565 0.6552401
000100 73 e9 0e 3f 54 a8 35 be 5f 19 25 3f 63 1d a3 be
       0.55824965 -0.17739993 0.6449184 -0.31858358
000110 58 cd 88 3d 98 65 31 3f 54 02 2f 3f dd 01 50 be
       0.06679791 0.69295645 0.6836293 -0.20313211
000120 a1 93 8b 3d 5d 17 91 be f5 8f fd 3e cc 90 9f 3e
       0.06815267 -0.28338137 0.49523893 0.3116516
000130 2f 0c 69 3f 0d 12 47 3f 3b c3 1d 3e 8c 90 4b 3f
       0.91034216 0.7776192 0.15406506 0.79517436
000140 d1 3d 17 bd 30 f5 5a 3f 55 4f c6 3e 6a 9c 19 3f
       -0.036924187 0.85530376 0.387324 0.60004294
000150 76 b1 49 3d 82 6d 13 be c2 2c f6 3e d7 e0 3f be
       0.049241506 -0.14397243 0.48081023 -0.18738113
000160 0d 11 2a 3f 08 82 34 bf 73 8f b5 be fa 73 8e 3d
       0.6643227 -0.7051091 -0.35461006 0.069557145
000170 59 de 96 3d ab 05 0b bf a2 15 b4 3e 2c 22 8c 3e
       0.07366628 -0.54305524 0.35172755 0.2736982
000180 6f 06 c3 3d 61 ef 04 3f f2 f6 02 bf 3f e2 44 3e
       0.095227115 0.51927763 -0.5115806 0.19226931
000190 95 59 2e bf 58 58 3e 3f e9 fd 7f 3f e4 66 5a 3f
       -0.6810544 0.7435355 0.9999681 0.8531325
0001a0 0a cf 4d 3f 3f e8 d5 3e 39 dc b4 3e d7 bd 24 3f
       0.8039404 0.41778752 0.35324267 0.6435217
0001b0 6d 9b a3 3e 0e b4 1a be 3d 68 6a be 83 ac b2 3a
       0.31954518 -0.15107748 -0.22891326 0.0013631735
0001c0 a8 a1 42 bf e2 f5 85 3e 1b 08 ad 3e b0 ba 8b be
       -0.7602792 0.26164156 0.33795246 -0.2729087
0001d0 b4 9e c0 be 4f 8a 36 3f 8b 94 02 bf d2 b8 a7 3d
       -0.3762108 0.7130479 -0.5100791 0.081895486
0001e0 fa a9 c9 3e c3 56 04 3f 16 31 b7 be a9 cf c3 3e
       0.39387494 0.5169489 -0.35779637 0.3824437
0001f0 19 6b 35 3f e2 2e d9 3e 10 bc 23 3f 0f a8 57 be
       0.70866543 0.4241858 0.63958836 -0.21060203
000200 8b 59 8a be 5d d1 e1 3e d8 f4 1a bf 9c 96 ca be
       -0.2702144 0.44105044 -0.6052985 -0.3956803
000210 45 55 df 3e 04 ce 88 3e d3 14 02 3e 32 a6 a6 be
       0.43619743 0.26719677 0.12703256 -0.32548672
000220 83 81 ab 3e 58 fe b2 bd a7 3e 9a 3e 58 5b cd be
       0.33497247 -0.087399185 0.30125925 -0.40108752
000230 f2 d5 73 3f 98 e1 fb 3e 4c 80 49 bf eb fa 11 be
       0.9524833 0.49195552 -0.7871139 -0.14255874
000240 44 e4 84 be c2 a0 05 3f c4 6c 01 3e 7d db db 3d
       -0.25955403 0.5219842 0.12639147 0.107352234
000250 36 8a 1d bf 7a d8 e0 be 3c 6d 4d be 13 f2 09 bf
       -0.6153902 -0.4391516 -0.20061201 -0.53885
000260 ba 43 4a be 16 58 24 3f c6 53 a8 3e f0 dd 7f be
       -0.19752398 0.6419691 0.32876414 -0.24987006
000270 47 e1 02 3e 68 8b 1e bc 5b 76 0d 3f 45 0a b0 3d
       0.12781249 -0.009676792 0.5525872 0.08595709
000280 12 84 46 bf 07 e1 4d 3e d4 c0 2d bf b4 f4 84 3d
       -0.77545273 0.20105372 -0.6787236 0.06491986
000290 f6 ef e3 be 37 f3 13 3f 47 be c3 be 80 bd 42 3f
       -0.44519013 0.5779299 -0.38231108 0.76070404
0002a0 d3 1a d2 be 3d 61 18 bf 28 27 2d 3e 15 a1 ae be
       -0.4103609 -0.59523374 0.16909468 -0.3410727
0002b0 87 5b 9b 3e c1 78 36 3f 0e 61 83 be ef df 1f bf
       0.30343267 0.71278006 -0.25659984 -0.6245107
0002c0 1a d2 1f bf 54 d5 1f bf be 9c a3 3e e9 ea 5f 3d
       -0.62429965 -0.6243489 0.31955522 0.054667387
0002d0 3d 5a dc bc 22 7b 09 be a8 e9 c2 3e 0b 7d 1c 3f
       -0.026898498 -0.13425878 0.3806889 0.611283
0002e0 f5 15 36 3f 00 e4 24 3f 46 19 73 3e 69 e5 66 be
       0.71127254 0.644104 0.2374011 -0.2254845
0002f0 89 c3 9b 3e e8 d2 a7 3f 35 4a 23 be 52 f7 2d 3e
       0.3042262 1.3111238 -0.15946276 0.16988876
000300 fd e1 44 3e 9a c2 b9 3d 23 a1 f9 bd e9 6d 55 3e
       0.19226833 0.090703204 -0.121889375 0.20842709
000310 fd b7 68 be 78 94 a4 be e1 24 d4 3e 55 7f 39 bf
       -0.22726436 -0.32144523 0.41434386 -0.7245992
000320 1d e8 9d 3d 20 2c 14 3f 06 4f d0 3e 00 65 cd 3e
       0.07710288 0.5787983 0.4068529 0.4011612
000330 be 72 00 3e dd 95 2e 3f 0e bf 39 bf 3e dc 4a 3e
       0.1254377 0.68197423 -0.7255715 0.19810578
000340 e1 92 10 3f 7f 94 2b 3f 2b ed b0 3e 81 29 be be
       0.5647412 0.6702346 0.34555945 -0.3714104
000350 d1 4c cb be 46 e2 55 3f c7 0f a8 3e da 67 ff 3e
       -0.39707044 0.8354839 0.32824537 0.4988392
000360 e7 d5 5f bf 08 80 0d 3f 81 d3 c6 3e 9d 82 d8 3e
       -0.87435764 0.55273485 0.3883324 0.4228715
000370 2c c0 0f be 46 e9 e5 3e a4 db 66 3f 81 eb ff be
       -0.14038152 0.44904536 0.90178895 -0.49984363
000380 11 91 63 bc 03 48 8d 3e 1f 2c 71 3e 30 45 01 bf
       -0.013889567 0.27594003 0.23551987 -0.50496197
000390 ab 8e 12 bf a0 b7 ca bc 6a 8c 1c 3e 10 07 9e be
       -0.57248944 -0.024745762 0.15287939 -0.30864763
0003a0 a3 83 91 be 70 ee bc 3e 1c 6e 8d 3e 13 01 58 3e
       -0.28420743 0.36900663 0.2762307 0.2109416
0003b0 3b d3 4c 3f 4c c5 3a be 19 7a 39 3f 82 27 16 3f
       0.8000981 -0.18239325 0.7245193 0.58654034
0003c0 fa 90 31 bf 25 d5 0b be 9b 1e 55 3d 72 bf 98 be
       -0.6936184 -0.13655527 0.05203114 -0.2983356
0003d0 0f 89 2d 3f e4 3e cc bd 68 41 80 3f 50 b3 bf 3e
       0.6778726 -0.09972933 1.001996 0.37441492
0003e0 c5 c8 78 3f 66 66 73 3f e6 6c 74 3f 45 29 d0 be
       0.9718135 0.9507812 0.95478666 -0.40656486
0003f0 88 cd 8c 3d 86 b5 85 bd 0e 8f 95 bd 7c 6a 29 3d
       0.068751395 -0.065287635 -0.07302676 0.041361317

l1.bias f4 [8]
000000 65 76 31 3f c7 7d 66 3f 25 d1 1f 3f 03 01 49 3f
       0.6932128 0.9003567 0.62428504 0.7851717
000010 59 01 29 3f 05 1a ed 3e 37 af d2 3e 2e fb 61 3f
       0.6601768 0.46308914 0.41149303 0.88273895

l2.weight f4 [8, 8]
000000 7a af 06 bf 2e 5e 56 3f 87 79 25 3f c4 13 7c be
       -0.52611506 0.83737457 0.6463856 -0.24616915
000010 a1 76 7a bf 34 3e 78 3f 70 7d 98 bf 35 16 ca 3f
       -0.97837263 0.96969914 -1.191328 1.5788027
000020 92 42 18 bd e0 18 93 3f 0f d5 6e bd 35 89 db 3d
       -0.03717286 1.1491966 -0.058308657 0.107195295
000030 28 29 d8 be a4 f6 4b bf ad fc 36 3d cb 75 39 3e
       -0.422189 -0.7967322 0.044674564 0.1811134
000040 17 90 98 bd b4 90 4f 3e 13 94 b2 3d 16 34 c9 3f
       -0.07449358 0.20270044 0.08719649 1.571902
000050 5a fc dc 3e 49 20 52 bf 29 e2 92 bf 56 93 79 3f
       0.4316128 -0.82080513 -1.1475269 0.9749044
000060 29 cf 39 3f da 3a c7 3f bd 85 bf bf de b8 6e 3e
       0.72581726 1.5564835 -1.4962689 0.23312709
000070 e9 16 3d 3f ae de 02 bf 45 cc 91 3e 74 20 11 3f
       0.73863083 -0.5112103 0.28476158 0.56690145
000080 74 43 a1 3f 3f 08 82 3f ff 5e 8b 3f c7 20 19 bf
       1.259871 1.0158767 1.0888366 -0.5981564
000090 51 21 98 be 50 18 33 3f 18 78 66 be 42 9b 4a bf
       -0.29712918 0.6995897 -0.2250675 -0.79143155
0000a0 b8 e7 9c bf ab 26 1d 3f dd 69 dc 3f 73 63 a5 bf
       -1.2258215 0.6138713 1.7219807 -1.2920974
0000b0 59 81 57 3f 1f d2 62 3c e1 c8 8c 3f dc df 8a 3f
       0.84181744 0.013844042 1.0998803 1.0849566
0000c0 43 bf 7a 3d 62 b4 4d bd 45 97 81 be 9c fc 00 3e
       0.061217558 -0.050220855 -0.25310722 0.12596363
0000d0 2f ba 0f be e8 02 56 be d3 c6 87 3e 06 3a 96 be
       -0.14035867 -0.20899546 0.26518878 -0.29341143
0000e0 ee 27 8f 3f 2b 49 5d bf 1c bc d3 bd 89 79 d2 3f
       1.118406 -0.8643977 -0.103386134 1.644334
0000f0 0b 38 9f bf 76 3f bf 3f 8a a7 ae 3f 22 0b b2 3f
       -1.2438978 1.4941242 1.3644879 1.3909647

l2.bias f4 [8]
000000 42 7c 83 3e 3a 45 fc 3e 48 d1 ee 3e 16 cd 18 3f
       0.2568074 0.49271566 0.46644044 0.59687936
000010 86 ae 9d 3d 06 d8 41 3f 20 4d 95 be 70 d8 77 3e
       0.07699303 0.7572025 -0.29160404 0.24203658

l3.weight f4 [14, 8]
000000 f9 a4 42 3f 35 2e bf 3e e9 c6 c7 3e d8 d3 44 bd
       0.7603298 0.3733994 0.39018944 -0.048053592
000010 f5 60 80 bf a1 c1 55 bf 7c 00 2c 3e 69 c6 fd bd
       -1.0029589 -0.8349858 0.1679706 -0.12391359
000020 3e 26 14 c0 4a 24 16 3e 40 db a9 be 6f 95 dc 3e
       -2.314834 0.1466228 -0.33175087 0.4308276
000030 9b 87 28 3f ce 62 0b bf 36 ca 32 be d6 37 97 be
       0.6583192 -0.5444764 -0.1745995 -0.29534787
000040 53 42 9b bf 43 a5 9a bf bf fd b0 bf 52 7f 22 3f
       -1.2129616 -1.2081684 -1.3827437 0.63475525
000050 f5 de 80 be cc 86 c4 bf a5 19 78 be c4 f0 12 3f
       -0.25170103 -1.5353637 -0.24228533 0.5739863
000060 0b 63 00 be 1d 37 1a be 52 14 07 c0 18 fc 0f 3f
       -0.12537782 -0.15060087 -2.1106153 0.5624404
000070 72 b2 2e be 01 35 6f 3e ad a5 85 bd 4b e3 41 bf
       -0.17060259 0.23360063 -0.06525741 -0.75737447
000080 34 44 38 3f 34 8b 83 bd 31 7c f3 be bb e3 bc bf
       0.7197907 -0.06423035 -0.47555688 -1.4756998
000090 71 97 11 3e 7b 6e 41 bd bf 2b b3 bd 8e a4 1e be
       0.14217927 -0.047224503 -0.08748578 -0.1549246
0000a0 64 8c 85 be 75 6d f0 bd bd 4d 39 bf 6c 9a a0 3e
       -0.26083672 -0.11739627 -0.72384244 0.31367815
0000b0 b9 b6 fb bf bd 39 bd bd 5f 4e 8e be d8 fe f7 3e
       -1.9665138 -0.09239528 -0.27794167 0.48436618
0000c0 77 6a f8 bf 7c 13 77 bf 60 0b 78 3f 7d db be bf
       -1.940749 -0.96514106 0.96892357 -1.4910733
0000d0 c3 72 f0 3d 34 b8 d2 3d b1 64 f3 bd b5 06 03 3f
       0.11740639 0.1028904 -0.1188444 0.5118211
0000e0 f6 a7 e1 bf 74 c7 13 3f 5f 0f d5 be a1 0a 77 3f
       -1.7629383 0.57726216 -0.4161329 0.96500593
0000f0 f8 45 7d bf ac 3f 94 3e ea f4 80 3e 13 4d e1 bf
       -0.9893489 0.28954828 0.25186855 -1.7601646
000100 7b 6c 3c 3f 82 ea 74 bf 0b 8f dd 3e 9c 0e f4 bf
       0.7360303 -0.9567033 0.43273196 -1.9066958
000110 93 19 c5 bf 91 a3 14 be 16 61 43 be 55 97 b7 3e
       -1.539843 -0.1451552 -0.19080004 0.35857645
000120 43 b4 dd be b5 18 77 3e b4 89 2f 3f d3 fd 63 3f
       -0.4330159 0.24130519 0.68569493 0.8905918
000130 e0 46 1b bf fa 79 d6 bf 5f 69 9d be 71 de a9 be
       -0.6065502 -1.6755974 -0.30744454 -0.33177522
000140 50 88 2e 3f 3a 26 c5 be a9 c6 f6 3e ed 9f 0a be
       0.68176746 -0.38505727 0.4819844 -0.1353757
000150 cc f7 32 bf e8 f3 00 3e 5b e6 8b 3a 68 df dd bf
       -0.6990936 0.12593043 0.001067351 -1.7333803
000160 0d 26 4c bf 2d a4 ce be f0 95 73 bf ec 64 ee bf
       -0.7974556 -0.4035963 -0.9515066 -1.8624549
000170 0e c5 13 3e 98 d0 9e bf 38 bf 87 3e 28 f9 7d 3f
       0.14430639 -1.2407408 0.26513076 0.9920831
000180 2d 43 a9 bf 42 44 07 be 71 80 77 bf be ad e6 bf
       -1.3223625 -0.13209632 -0.9668036 -1.8021772
000190 d7 e4 3a 3e c0 a7 8a 3f 56 e2 8c be 07 96 80 bf
       0.18251358 1.0832443 -0.2751643 -1.0045785
0001a0 65 a4 05 3f 63 e0 59 3d d8 01 1a bf ae a8 29 bf
       0.5220397 0.053192507 -0.60159063 -0.6627301
0001b0 5b cd 85 3f 74 fd 5f be a9 2a af be b2 f8 f8 bf
       1.0453295 -0.21874028 -0.34212235 -1.9450896

l3.bias f4 [14]
000000 f8 b0 05 bf 2e 46 69 3d 79 43 00 3e 76 54 0e be
       -0.5222316 0.056951694 0.12525739 -0.13899407
000010 01 35 70 be f2 b3 b7 be 8b 46 3c bd 6b 26 f0 3d
       -0.2345772 -0.35879475 -0.045965713 0.11726078
000020 0c 74 7d 3d 15 89 80 3e 9f 61 57 be 9d 72 4b be
       0.06187825 0.25104585 -0.21033333 -0.1986794
000030 85 81 1a 3f e1 9b 8b 3b
       0.6035388 0.0042605256
